Vocab Size = 110 and Maximum length = 18
Shape of padded docs =  (1260, 18)
Shape of train_X = (1008, 18) and train_Y = (1008, 17)
Shape of val_X = (252, 18) and val_Y = (252, 17)
Model: "sequential"
_________________________________________________________________
Layer (type)                 Output Shape              Param #   
=================================================================
embedding (Embedding)        (None, 18, 128)           14080     
_________________________________________________________________
bidirectional (Bidirectional (None, 256)               263168    
_________________________________________________________________
dense (Dense)                (None, 32)                8224      
_________________________________________________________________
dropout (Dropout)            (None, 32)                0         
_________________________________________________________________
dense_1 (Dense)              (None, 17)                561       
=================================================================
